ml/model/model.pth (torch, 90576 bytes, 8 tensors)

conv1.weight f4 [10, 1, 5, 5]
0.33933172 0.3204692 0.007620716 -0.10364323 -0.048448715 0.38020656 0.26158234 0.043892622
-0.2592608 -0.13777569 0.2559599 0.12705478 0.01595069 -0.4949413 -0.4685921 0.15816681
0.089379266 -0.049778134 -0.4219942 0.016753983 0.24541423 -0.050484974 0.029977344 -0.22884493
0.13202079 0.20923024 0.24065863 0.37082863 0.14088166 -0.022906018 0.001854638 0.042472165
0.3499749 0.44052982 -0.06828715 -0.27926055 -0.19394118 -0.012293216 0.33419317 0.082132936
-0.39423424 -0.22775714 0.020786552 0.058409058 0.24198903 -0.26946855 -0.17194532 -0.26483643
0.018652176 0.24805252 -0.13309379 -0.31445742 -0.0138998935 0.31999767 0.39754018 -0.17024767
-0.44181195 -0.30381244 0.122874856 0.2502708 -0.5247061 -0.39760512 -0.3759976 0.2140382
0.3916987 -0.43501633 -0.21208987 -0.05713013 -0.13365062 0.42957368 -0.07859151 -0.2469524
-0.21737917 0.04568358 0.19456288 -0.14590186 -0.17732792 -0.09846813 -0.03149816 0.09200955
-0.24150889 0.13950992 -0.030665318 0.0999491 -0.17269795 -0.2082981 -0.029152734 0.2845636
0.036090933 0.02495363 0.25559542 0.15907107 0.36222032 -0.09419117 -0.10975764 0.3743335
0.2822169 0.08005814 -0.28526086 -0.2487741 0.32195836 0.23898052 0.105925515 0.31496227
0.2143049 0.16842982 -0.21731207 -0.1028919 0.20516852 0.12989461 -0.14450686 -0.06427827
0.041124273 0.14270614 0.08283447 0.042302534 0.19966516 -0.13789508 -0.39959896 -0.3451747
-0.051264588 -0.015095564 -0.38816714 -0.15576299 -0.043068763 -0.0152914375 0.032795843 -0.11237795
-0.22000313 -0.041285984 0.07097119 0.10349222 0.022477062 0.248125 0.17323807 0.2679703
0.019315315 0.16903456 0.4163114 0.45860052 0.20512457 0.25291252 0.17796272 0.00086024246
0.06460471 -0.29884815 -0.36143124 -0.57342166 -0.4203662 -0.60250366 0.076693505 0.4166745
-0.099315375 -0.1183207 -0.46106938 -0.025606774 -0.5830093 -0.96756417 -0.7258802 -0.23526946
-0.55842537 -0.9502522 -0.46811697 -0.01121101 0.4720368 -0.83944464 -0.3396067 0.24053563
0.3020599 0.32012916 -0.6263747 -0.20929402 0.1916999 0.46809626 0.31015772 -0.12107043
-0.48313823 -0.36784592 -0.41955176 -0.32325664 -0.31310344 -0.4996485 -0.57767004 -0.35144317
-0.36003235 0.2980059 0.22881265 0.05671567 -0.1326562 -0.0074769943 0.58192164 0.30891037
0.22423238 0.41955537 0.021606166 0.014362122 0.30519298 0.41374433 0.3226821 0.33524355
0.009906795 -0.020839782 -0.30611935 0.101682305 0.09699206 -0.4770483 -0.34915715 0.1176916
0.41059658 -0.06324887 -0.15545577 0.14683123 0.47284633 -0.0462279 -0.051239125 -0.06466378
0.37378666 0.03120531 -0.142341 0.118155695 0.20900394 0.1880519 -0.14601727 -0.1375977
0.088358454 -0.2723547 -0.29887223 0.1603191 0.13606077 -0.12970096 -0.2462294 -0.07015243
0.21533722 -0.0061263824 -0.16266653 0.13159788 0.18536954 0.0905773 0.1993171 -0.10823367
-0.05975989 -0.045264263 -0.0032460957 0.40464422 0.17299011 -0.07684952 -0.09512733 0.08979773
0.26960224 0.26285994
00000000: e3bc ad3e 8a14 a43e 33b7 f93b e742 d4bd
00000010: 2972 46bd 6faa c23e 1fee 853e c0c8 333d
00000020: d5bd 84be 1215 0dbe 2d0d 833e a61a 023e
00000030: 05ab 823c f268 fdbe 4eeb efbe 7bf6 213e
00000040: 7a0c b73d 28e4 4bbd a00f d8be a63f 893c
00000050: de4d 7b3e 55c9 4ebd 0c93 f53c 5356 6abe
00000060: 7530 073e 7440 563e 376f 763e 40dd bd3e
00000070: 4843 103e 67a5 bbbc 5317 f33a 4bf7 2d3d
00000080: e92f b33e 208d e13e 22da 8bbd 3dfb 8ebe
00000090: 8498 46be 7c69 49bc 5e1b ab3e 5035 a83d
000000a0: 12d9 c9be 2b39 69be 8f48 aa3c 563e 6f3d
000000b0: f9cb 773e c8f7 89be 6f12 30be a498 87be
000000c0: 73cc 983c 7b01 7e3e bd49 08be 9000 a1be
000000d0: 61bc 63bc bcd6 a33e 638a cb3e 6855 2ebe
000000e0: 2d35 e2be 4e8d 9bbe d0a5 fb3d 7f23 803e
000000f0: 2453 06bf e692 cbbe c282 c0be d42c 5b3e
00000100: bb8c c83e 76ba debe 162e 59be 4801 6abd
00000110: b5db 08be 15f1 db3e 96f4 a0bd 17e1 7cbe
00000120: a598 5ebe b51e 3b3d 7e3b 473e 4c67 15be
00000130: 7395 35be a9a9 c9bd 3704 01bd 816f bc3d
00000140: 1b4e 77be b0db 0e3e d535 fbbc 1db2 cc3d
00000150: bbd7 30be 194c 55be b7d1 eebc 52b2 913e
00000160: 16d4 133d 8e6b cc3c 67dd 823e 87e3 223e
00000170: f174 b93e 4de7 c0bd 9dc8 e0bd a4a8 bf3e
00000180: bc7e 903e 86f5 a33d b60d 92be a3be 7ebe
00000190: bad7 a43e 4fb7 743e 7aef d83d bc42 a13e
000001a0: be72 5b3e de78 2c3e 0e87 5ebe fdb8 d2bd
000001b0: b217 523e 1803 053e 9bf9 13be 53a4 83bd
000001c0: ed71 283d 8f21 123e 1ea5 a93d 6c45 2d3d
000001d0: 0675 4c3e 5e34 0dbe 3c98 ccbe bdba b0be
000001e0: d1fa 51bd 6253 77bc d8bd c6be 5580 1fbe
000001f0: df68 30bd f088 7abc ef54 063d 6926 e6bd
00000200: 8048 61be 7e1b 29bd 5859 913d bbf3 d33d
00000210: d121 b83c 7b14 7e3e 5265 313e 6733 893e
00000220: 273b 9e3c 6517 2d3e c526 d53e b0cd ea3e
00000230: 2d0c 523e c07d 813e dc3b 363e e581 613a
00000240: 794f 843d a002 99be 840d b9be c3cb 12bf
00000250: 3d3a d7be ae3d 1abf 7c11 9d3d 5c56 d53e
00000260: dc65 cbbd 2052 f2bd 4911 ecbe 4cc5 d1bc
00000270: 1940 15bf 49b2 77bf 49d3 39bf 7aea 70be
00000280: f7f4 0ebf ba43 73bf 07ad efbe 62ae 37bc
00000290: cfae f13e d8e5 56bf eee0 adbe f94e 763e
000002a0: 98a7 9a3e f8e7 a33e 185a 20bf 2c51 56be
000002b0: fb4c 443e 50aa ef3e fecc 9e3e c6f3 f7bd
000002c0: e55d f7be 4d56 bcbe 7dcf d6be e581 a5be
000002d0: 184f a0be eed1 ffbe 2fe2 13bf 5cf0 b3be
000002e0: 2956 b8be 3b94 983e dd4d 6a3e b14e 683d
000002f0: 07d7 07be 9301 f5bb d1f8 143f 8029 9e3e
00000300: 2c9d 653e f6cf d63e 6aff b03c 1b4f 6b3c
00000310: 4142 9c3e 4cd6 d33e 9736 a53e 0ba5 ab3e
00000320: 1c50 223c 31b8 aabc adbb 9cbe d03e d03d
00000330: c6a3 c63d ad3f f4be bac4 b2be 4b08 f13d
00000340: b739 d23e a088 81bd cc2f 1fbe ed5a 163e
00000350: ea18 f23e 7759 3dbd 1ee0 51bd 726e 84bd
00000360: f760 bf3e 47a2 ff3c d7c1 11be 9dfb f13d
00000370: 2105 563e ad90 403e 8d85 15be 69e6 0cbe
00000380: 47f5 b43d 1372 8bbe c805 99be b12a 243e
00000390: 8453 0b3e 54d0 04be 8f23 7cbe 14ac 8fbd
000003a0: 5c81 5c3e d2bf c8bb 0e92 26be 98c1 063e
000003b0: 83d1 3d3e 9780 b93d c819 4c3e 9da9 ddbd
000003c0: c9c6 74bd 0567 39bd 73bc 54bb 872d cf3e
000003d0: 5224 313e 4863 9dbd 1ed2 c2bd dfe7 b73d
000003e0: 4e09 8a3e 9495 863e

conv1.bias f4 [10]
-0.10423025 -0.2601361 0.0055932677 -0.03900681 0.007495337 -0.0016057881 0.23438045 0.07378713
-0.1645376 -0.013579883
00000000: ab76 d5bd 8f30 85be bb47 b73b 9bc5 1fbd
00000010: 729b f53b 4f79 d2ba 6e01 703e b51d 973d
00000020: 8b7c 28be 287e 5ebc

conv2.weight f4 [20, 10, 5, 5]
-0.04301453 0.085016966 0.016331062 -0.055264074 0.002025061 -0.09339916 -0.067982 0.031790253
0.014543219 -0.0016583056 -0.020459266 -0.060811803 0.008242314 0.04007911 0.063735515 -0.056779187
-0.113071404 -0.12604316 -0.21291408 -0.22363646 -0.13530089 -0.03631909 -0.24476613 -0.23651356
-0.14975177 0.012303688 0.034767173 -0.06679884 -0.17752971 -0.13516973 -0.101646885 -0.004244105
0.021109646 -0.07391745 0.05365975 -0.05870655 0.035346635 0.03451705 0.009197748 0.088603646
-0.10894976 -0.10627431 -0.025434636 -0.051987886 -0.12458509 0.020982262 0.07426824 -0.123820335
-0.06870441 -0.04512866 0.019123899 0.082538225 0.019806577 -0.0088259075 -0.05041866 -0.08456176
0.12404991 0.10074135 -0.06928382 -0.09255997 -0.17369825 0.010560698 -0.10631387 -0.14748962
-0.11079769 -0.2744969 -0.021227805 -0.14827262 -0.16626292 -0.2905123 -0.11335568 -0.037814032
-0.10676365 -0.15787832 -0.31363416 0.03246202 0.03555073 0.05882384 0.12389044 0.10219966
-0.0091152135 -0.011880541 0.06911391 0.08355757 0.0485345 -0.12134674 -0.097018644 -0.13187346
-0.24202359 -0.16950293 -0.054078273 -0.05698441 -0.023145359 -0.028739965 -0.0290734 -0.0057909107
-0.043698672 -0.05709999 -0.018972265 0.012286141 -0.11909273 -0.049915798 -0.11907218 -0.008624679
0.023238959 0.043672305 -0.026852956 0.00054390123 0.024826523 0.10196859 0.1117559 0.12252849
0.092188366 0.08089786 0.029690214 -0.0009510605 0.02742776 -0.032724306 -0.115997516 -0.06128929
0.044628236 -0.07248795 -0.10233972 -0.13141505 -0.09065166 -0.038667824 -0.046787687 -0.005209301
0.082481734 0.08342568 0.088335454 0.08102043 0.10650437 0.15384439 0.18943565 0.10981799
0.19355102 0.21443512 0.062167376 0.030565575 -0.068665095 -0.114232555 -0.17959318 -0.13077372
-0.12482836 0.031143814 -0.000692628 -0.044177208 -0.00433643 -0.1104616 -0.22695608 -0.08192046
0.056272443 0.20715669 0.28301346 -0.35773218 -0.054274652 0.0042028767 0.09835051 0.023750884
-0.39547458 -0.30167577 -0.21781906 -0.09604776 -0.076957785 -0.02238787 0.0969175 0.31004015
0.27868336 0.030975502 0.27389458 0.3159363 0.2320542 0.10558049 0.00561996 -0.07354312
0.038564816 0.0067426222 0.06885252 0.0630001 -0.019782841 0.11804504 0.12124619 0.16129525
0.11511881 -0.011506806 -0.012554184 -0.048066843 -0.09809674 -0.37931952 0.1896478 0.19339025
0.14793938 0.055247705 -0.06720029 -0.0036255918 0.09119373 0.15296131 0.14480093 0.071075946
0.06507088 -0.02027631 0.0698814 0.17006439 0.124318585 0.025721468 0.06875473 0.06966222
0.12060687 0.14421405 -0.08751423 -0.07377272 -0.038467202 0.013812212 0.020176241 -0.2514618
-0.28401503 -0.15172255 -0.077255264 -0.019586658 -0.06258176 -0.08718414 -0.021601036 -0.12605202
-0.11193093 0.021678245 -0.038866162 -0.040475093 -0.010175088 0.087656796 -0.0021112536 0.12004485
0.17483146 0.087906286 0.10462923 -0.044684965 -0.1177625 -0.057661638 -0.100203864 -0.1448571
-0.07234971 -0.22415692 -0.2247719 -0.19457023 -0.201269 -0.13118668 -0.082777165 0.0032696133
0.0052906913 -0.07382536 -0.11012737 -0.011396653 0.015763588 -0.09809376 -0.04697246 -0.10818592
00000000: 0130 30bd 601d ae3d b8c8 853c 955c 62bd
00000010: e3b6 043b 0f48 bfbd 263a 8bbd 7f36 023d
00000020: ae46 6e3c 815b d9ba 319a a7bc cc15 79bd
00000030: c50a 073c fe29 243d c487 823d 4b91 68bd
00000040: fb91 e7bd 7511 01be 2606 5abe f500 65be
00000050: 518c 0abe 53c3 14bd f9a3 7abe 9c30 72be
00000060: 8758 19be 6895 493c 0668 0e3d d5cd 88bd
00000070: 59ca 35be ef69 0abe 3e2c d0bd 2212 8bbb
00000080: 23ee ac3c 0862 97bd 53ca 5b3d 4876 70bd
00000090: a2c7 103d c061 0d3d 27b2 163c d475 b53d
000000a0: 0d21 dfbd 58a6 d9bd 4c5c d0bc 40f1 54bd
000000b0: 7826 ffbd fee2 ab3c f219 983d 8495 fdbd
000000c0: e6b4 8cbd d4d8 38bd b9a9 9c3c cd09 a93d
000000d0: 6741 a23c 8a9a 10bc cc83 4ebd b72e adbd
000000e0: e10d fe3d 7b51 ce3d ade4 8dbd 1590 bdbd
000000f0: f4dd 31be c706 2d3c 16bb d9bd 8507 17be
00000100: e6e9 e2bd dc8a 8cbe efe5 adbc c7d4 17be
00000110: d440 2abe 07be 94be 0627 e8bd e3e2 1abd
00000120: e7a6 dabd dbaa 21be a894 a0be e5f6 043d
00000130: a49d 113d 44f1 703d 45ba fd3d 0e4e d13d
00000140: fa57 15bc 9aa6 42bc 988b 8d3d 3b20 ab3d
00000150: 1dcc 463d a484 f8bd b6b1 c6bd d609 07be
00000160: 08d5 77be 2d92 2dbe 2e81 5dbd 7c68 69bd
00000170: 569b bdbc 1370 ebbc 572b eebc aec1 bdbb
00000180: 61fd 32bd aee1 69bd b96b 9bbc cf4b 493c
00000190: e4e6 f3bd 8274 4cbd 1ddc f3bd 874e 0dbc
000001a0: a15f be3c bbe1 323d bbfa dbbc 9894 0e3a
000001b0: fe60 cb3c e8d4 d03d 47e0 e43d 38f0 fa3d
000001c0: 41cd bc3d c7ad a53d e438 f33c 9750 79ba
000001d0: 2fb0 e03c ec09 06bd 1b90 edbd 7b0a 7bbd
000001e0: 19cc 363d 9074 94bd 7d97 d1bd ab91 06be
000001f0: 94a7 b9bd 2762 1ebd 72a4 3fbd c9b2 aabb
00000200: 2fec a83d 15db aa3d 38e9 b43d 0aee a53d
00000210: f71e da3d 6289 1d3e 6bfb 413e 41e8 e03d
00000220: 3d32 463e e194 5b3e 38a3 7e3d a864 fa3c
00000230: 49a0 8cbd c2f2 e9bd 46e7 37be 8ce9 05be
00000240: 03a6 ffbd 5021 ff3c 7a91 35ba 29f3 34bd
00000250: 9d18 8ebb b139 e2bd 2d67 68be eac5 a7bd
00000260: ef7d 663d e220 543e 24e7 903e ac28 b7be
00000270: 194f 5ebd 49b8 893b fe6b c93d 3791 c23c
00000280: a57b cabe 3f75 9abe f60b 5fbe b0b4 c4bd
00000290: 0b9c 9dbd c466 b7bc af7c c63d 95bd 9e3e
000002a0: 96af 8e3e 56c0 fd3c e93b 8c3e 67c2 a13e
000002b0: 9e9f 6d3e 953a d83d a427 b83b c69d 96bd
000002c0: 24f6 1d3d 37f1 dc3b 8d02 8d3d 3206 813d
000002d0: a00f a2bc 99c1 f13d ec4f f83d 952a 253e
000002e0: 69c3 eb3d 0b87 3cbc 10b0 4dbc bde1 44bd
000002f0: f2e6 c8bd 2b36 c2be 0833 423e 1808 463e
00000300: 6c7d 173e 6b4b 623d 4ea0 89bd 569b 6dbb
00000310: c7c3 ba3d e4a1 1c3e b246 143e 4490 913d
00000320: e243 853d 811a a6bc fb1d 8f3d 5c25 2e3e
00000330: be9a fe3d d4b5 d23c 48cf 8c3d 11ab 8e3d
00000340: bc00 f73d d9ac 133e a93a b3bd 2716 97bd
00000350: c98f 1dbd 9e4c 623c a548 a53c 9abf 80be
00000360: 6b6a 91be 285d 1bbe 0238 9ebd 3374 a0bc
00000370: de2a 80bd 998d b2bd a8f4 b0bc c813 01be
00000380: 0b3c e5bd 9396 b13c 2032 1fbd 36c9 25bd
00000390: 6ab5 26bc 6885 b33d f55c 0abb 13da f53d
000003a0: 0507 333e 3608 b43d da47 d63d 9507 37bd
000003b0: 772d f1bd 9c2e 6cbd af37 cdbd 6b55 14be
000003c0: 162c 94bd 6489 65be 9b2a 66be 6b3d 47be
000003d0: 7619 4ebe cd55 06be 1387 a9bd 0247 563b
000003e0: 895d ad3b c031 97bd 758a e1bd 07b9 3abc
000003f0: a422 813c 62e5 c8bd 3266 40bd 9490 ddbd

conv2.bias f4 [20]
-0.11964623 -0.03979207 -0.04110821 0.020028323 -0.063993275 -0.09947661 0.025208382 -0.0010644357
0.010529175 0.08187668 0.041123077 0.031331934 0.062646106 0.04517803 -0.025314866 -0.068447694
-0.023940863 0.04876304 0.004052273 0.10171092
00000000: 1509 f5bd 02fd 22bd 1561 28bd 7012 a43c
00000010: e80e 83bd 65ba cbbd cf81 ce3c 8984 8bba
00000020: 9082 2c3c f6ae a73d ac70 283d ea55 003d
00000030: 9a4c 803d 990c 393d 1f61 cfbc 4e2e 8cbd
00000040: a11f c4bc c1bb 473d eec8 843b d14d d03d

fc1.weight f4 [50, 320]
0.006694959 0.0116517935 0.062199783 -0.15735987 -0.03875348 -0.05379693 0.06388892 -0.018342905
0.0010177258 -0.03637997 -0.024696443 0.055236835 -0.07102216 -0.10641254 0.07841004 0.19867593
-0.03085762 -0.18146355 -0.12470035 -0.053796105 -0.09628277 0.11786489 0.021983478 0.14981827
-0.035915837 0.050501507 -0.12415404 0.024221247 0.11313805 0.0670032 0.030410605 -0.07940734
-0.014618377 -0.04353072 -0.050256938 0.04441757 0.014034725 -0.048628602 0.00039474881 0.05418326
0.056820128 -0.030896772 0.0072775935 0.02319703 0.037079815 -0.0001083758 -0.005030832 -0.06368406
-0.0043848744 -0.054211583 0.098780125 0.1247082 0.02794423 -0.00084518327 0.028404715 -0.04462821
-0.014654768 -0.06810864 -0.0043483186 -0.03636794 -0.017431105 0.04923443 0.08314397 0.065823406
0.09035392 0.08129017 0.006205965 -0.08129061 0.08406151 -0.040419195 -0.11729048 -0.059703827
0.06849468 -0.038696226 -0.010033199 0.051412813 -0.042260468 0.035708927 -0.039260954 -0.0504229
0.059375416 0.0050741914 0.08366746 0.09381836 0.026889594 0.18020502 0.18081018 -0.034412466
-0.049273048 0.040016226 -0.0350987 -0.20831107 -0.2691758 -0.13414654 -0.07583812 -0.09648129
-0.02804803 -0.031568002 -0.2006533 -0.23791334 -0.017261414 -0.02404505 -0.008033991 0.1393959
0.08828193 -0.047899585 -0.12595262 0.10513424 0.100932576 0.10000387 0.054018997 -0.10104912
0.09425639 0.084022954 -0.08597382 -0.21698533 -0.015767533 0.03580558 0.080969386 -0.071107425
-0.026782375 -0.047587667 -0.02223248 0.03434849 -0.013136771 0.012216268 -0.0036256956 0.12973325
0.18505926 -0.041926943 0.011515413 -0.120219715 0.09196801 0.0032640777 0.015282824 -0.058221754
-0.025761016 -0.0074468306 -0.09512123 -0.015562268 -0.019740304 -0.011662454 -0.07425706 0.10367202
0.037907317 -0.24637213 -0.14904778 -0.066000134 -0.023021642 -0.02884223 0.15742901 0.1450061
0.039090294 0.11780042 -0.042426117 -0.061764933 0.19447699 0.1614361 -0.020055028 -0.077022135
0.005573013 -0.08473133 -0.12931356 -0.12368026 0.038056355 -0.07329785 0.013286762 0.186134
0.08498587 -0.14350198 -0.03948725 -0.056014746 0.15504195 0.14074688 0.07893674 -0.064324215
-0.064729154 -0.0333741 -0.22003736 -0.15652876 0.085852034 0.07504715 -0.029569775 0.03452827
-0.002735409 0.09143123 -0.042611934 0.08562322 0.10248329 -0.035976727 0.087546885 0.0371741
0.09208622 -0.044227883 0.0025858742 0.0782546 -0.06115732 0.02072882 0.011094085 0.09655633
0.08336392 -0.052041966 0.089449175 -0.11829882 -0.07875061 0.0070124944 -0.17890136 -0.20305848
-0.080528244 -0.04312174 0.0878965 0.048723478 0.069951564 0.09434017 0.070288345 0.07008613
0.03140133 -0.1402141 -0.08237831 -0.14714643 0.048981376 0.053924892 -0.015543703 -0.061994012
-0.02069716 -0.014279568 0.02566561 0.09459397 0.06124572 0.07637287 0.052943174 0.10530537
0.004260871 -0.000706891 0.043917418 -0.09645643 -0.05752344 0.022220302 -0.067506105 -0.088983566
-0.10551636 -0.14857033 -0.20236759 -0.1119465 0.102142505 -0.042028844 0.113045596 0.21420375
-0.019528925 -0.002191074 0.08457351 0.13614479 0.053069044 0.004989108 -0.012263898 -0.08639934
00000000: 6361 db3b 2ae7 3e3c 33c5 7e3d f222 21be
00000010: f8bb 1ebd 2b5a 5cbd 32d8 823d dc43 96bc
00000020: 3665 853a 2a03 15bd 3250 cabc 0540 623d
00000030: 1174 91bd d1ee d9bd 7195 a03d b471 4b3e
00000040: 1fc9 fcbc 95d1 39be e662 ffbd 4e59 5cbd
00000050: e72f c5bd 2663 f13d b216 b43c f669 193e
00000060: 7c1c 13bd abda 4e3d 7944 febd a36b c63c
00000070: ecb4 e73d f938 893d a91f f93c 51a0 a2bd
00000080: eb81 6fbc 454d 32bd 38da 4dbd 33ef 353d
00000090: e7f1 653c c92e 47bd 4af6 ce39 44ef 5d3d
000000a0: 39bc 683d 3a1b fdbc e178 ee3b b307 be3c
000000b0: 01e1 173d d147 e3b8 add9 a4bb ca6c 82bd
000000c0: feae 8fbb f70c 5ebd 3c4d ca3d 0367 ff3d
000000d0: 4ceb e43c 4a8f 5dba 01b1 e83c 12cc 36bd
000000e0: 8d1a 70bc 8b7c 8bbd 577c 8ebb 8df6 14bd
000000f0: adcb 8ebc 0baa 493d 6347 aa3d 6cce 863d
00000100: 7a0b b93d 767b a63d 685b cb3b b17b a6bd
00000110: 7128 ac3d 998e 25bd fe35 f0bd 008c 74bd
00000120: f046 8c3d ef7f 1ebd 4962 24bc 3e96 523d
00000130: 5019 2dbd 8643 123d 18d0 20bd 3e88 4ebd
00000140: a333 733d 6745 a63b d859 ab3d d723 c03d
00000150: 9147 dc3c aa87 383e 4e26 393e 16f4 0cbd
00000160: 89d2 49bd 0ee8 233d a8c3 0fbd 7f4f 55be
00000170: 69d1 89be b65d 09be 0451 9bbd fc97 c5bd
00000180: fbc4 e5bc 734d 01bd 0f78 4dbe 8e9f 73be
00000190: cf67 8dbc 20fa c4bc 00a1 03bc ccbd 0e3e
000001a0: 28cd b43d 5b32 44bd b9f9 00be 9f50 d73d
000001b0: bdb5 ce3d d4ce cc3d 0643 5d3d d7f2 cebd
000001c0: 7f09 c13d 3a14 ac3d 0b13 b0bd 6731 5ebe
000001d0: ea2a 81bc dfa8 123d 47d3 a53d c5a0 91bd
000001e0: b666 dbbc 49eb 42bd e420 b6bc 01b1 0c3d
000001f0: 9c3b 57bc be26 483c 149d 6dbb cbd8 043e
00000200: 2d80 3d3e 96bb 2bbd 25ab 3c3c c135 f6bd
00000210: b959 bc3d 23ea 553b cf64 7a3c ef79 6ebd
00000220: c408 d3bc 8b04 f4bb ebce c2bd e2f8 7ebc
00000230: 6bb6 a1bc e113 3fbc 1614 98bd ff51 d43d
00000240: b444 1b3d fa48 7cbe fb9f 18be 142b 87bd
00000250: e297 bcbc 8a46 ecbc 1235 213e 7b7c 143e
00000260: 251d 203d 5941 f13d 02c7 2dbd 3afd 7cbd
00000270: fa24 473e 814f 253e 714a a4bc c8bd 9dbd
00000280: d29d b63b 9f87 adbd c66a 04be 134c fdbd
00000290: fbe0 1b3d 2f1d 96bd b8b0 593c e999 3e3e
000002a0: 120d ae3d 2ff2 12be 62bd 21bd b86f 65bd
000002b0: 51c3 1e3e f31f 103e 96a9 a13d 6abc 83bd
000002c0: b890 84bd 48b3 08bd 7951 61be 1349 20be
000002d0: 31d3 af3d 52b2 993d 503c f2bc 846d 0d3d
000002e0: 8c44 33bb 4c40 bb3d da89 2ebd 3a5b af3d
000002f0: c2e2 d13d 555c 13bd c84b b33d de43 183d
00000300: b397 bc3d 4c28 35bd c577 293b f343 a03d
00000310: 1980 7abd 7ccf a93c f7c3 353c 53bf c53d
00000320: b4ba aa3d f529 55bd 2131 b73d a746 f2bd
00000330: 0048 a1bd 11c9 e53b eb31 37be 90ee 4fbe
00000340: feeb a4bd 6ca0 30bd 1503 b43d 4592 473d
00000350: c442 8f3d 6b35 c13d 56f3 8f3d 5189 8f3d
00000360: ae9e 003d 4994 0fbe f6b5 a8bd 8ead 16be
00000370: b2a0 483d 59e0 5c3d 04ab 7ebc 6fed 7dbd
00000380: 178d a9bc d9f4 69bc af40 d23c 7cba c13d
00000390: cbdc 7a3d 6169 9c3d f1da 583d 58aa d73d
000003a0: c79e 8b3b a74e 39ba c0e2 333d f38a c5bd
000003b0: b39d 6bbd 5a07 b63c a440 8abd 043d b6bd
000003c0: f618 d8bd d222 18be 7339 4fbe 3544 e5bd
000003d0: 1730 d13d 7026 2cbd 7384 e73d 3a58 5b3e
000003e0: 20fb 9fbc 1f98 0fbb e034 ad3d 8a69 0b3e
000003f0: ed5e 593d ac7b a33b 84ee 48bc 23f2 b0bd

fc1.bias f4 [50]
0.064969026 0.13521717 0.114126995 0.16365117 0.15565324 0.123055935 0.23112547 0.08144501
0.08994243 0.09713439 0.03658472 0.14520532 0.100782454 0.0026214332 0.19090812 0.033690173
0.07191464 -0.0061215954 0.23141341 0.22119229 0.03896093 0.08854091 0.114557266 0.24989104
0.048489846 0.22462557 -0.011858665 0.18559437 0.08107295 0.114671074 0.020827271 0.06854058
0.16123945 0.043079823 0.10549335 0.073538 0.12723951 0.12347753 0.12199727 -0.069240816
0.23157762 0.10926166 0.17991239 0.088124625 0.0007010423 0.19710977 0.13391915 0.17813087
0.06713122 -0.009305239
00000000: 7b0e 853d 5f76 0a3e 6abb e93d 2c94 273e
00000010: 9063 1f3e c004 fc3d 28ac 6c3e a4cc a63d
00000020: bd33 b83d 65ee c63d dcd9 153d b4b0 143e
00000030: 0867 ce3d 5acc 2b3b 6b7d 433e b5fe 093d
00000040: fc47 933d aa97 c8bb a3f7 6c3e 3b80 623e
00000050: 7f95 1f3d f054 b53d 009d ea3d 70e3 7f3e
00000060: 4a9d 463d 3f04 663e d94a 42bc 730c 3e3e
00000070: 9309 a63d abd8 ea3d f49d aa3c 015f 8c3d
00000080: f41b 253e 7874 303d e60c d83d 179b 963d
00000090: 134b 023e cae1 fc3d b4d9 f93d 21ce 8dbd
000000a0: af22 6d3e 94c4 df3d f43a 383e af7a b43d
000000b0: 27c6 373a 25d7 493e 1a22 093e f067 363e
000000c0: 187c 893d 0075 18bc

fc2.weight f4 [10, 50]
0.046787973 -0.2700981 0.123385765 0.14812516 0.24161068 0.11454257 0.0472872 -0.08378648
0.2118651 0.10523072 -0.24163072 -0.23578048 0.11846252 -0.1812007 -0.21085216 0.09181076
0.13356279 -0.06978381 -0.26915163 -0.14094436 0.06454682 0.12767567 0.1362163 0.1417412
-0.27682954 -0.3787766 -0.23288655 -0.30353102 -0.2387413 0.13025916 -0.14781626 0.12318222
-0.030438418 -0.0029570875 -0.22820511 -0.23662958 -0.052876916 -0.28274694 -0.119742006 -0.16962074
-0.30038345 -0.23413242 -0.042103525 -0.303661 0.008960864 -0.23574203 0.16886047 -0.13496275
0.15379263 -0.28795746 -0.2341772 0.09815429 -0.38596904 0.13115297 0.15111136 -0.022087066
0.13299994 -0.34693417 -0.23328325 -0.16712184 -0.1424392 -0.09854545 -0.029195966 -0.10076075
0.18955812 -0.07127322 -0.092957705 -0.10309213 0.10732884 0.19578308 -0.14159204 -0.43041605
-0.19209675 0.08325668 -0.2599456 0.11640274 -0.3559281 0.09721796 0.18555145 -0.19465366
0.06651752 -0.2115453 -0.1590961 -0.4083923 0.03457311 0.0076239873 0.15847494 0.18380502
-0.20813124 -0.21584737 0.15531026 0.1427291 0.10283586 -0.2852917 -0.39615202 0.20581052
-0.0951146 0.16685429 -0.38584232 -0.14302754 0.055532604 -0.04708655 -0.09763729 -0.28901792
0.01641461 0.1184971 0.112734266 -0.10576166 -0.13835825 -0.12582026 -0.10294346 0.07017993
0.15455168 0.11709285 -0.033134244 0.10528016 -0.06658094 0.13591753 0.14529176 -0.17337716
0.08471916 -0.31133398 0.1350446 -0.16962446 -0.103082076 0.09834503 -0.3046577 -0.0371
-0.10856466 0.11038242 0.1022227 -0.12157862 -0.3733013 -0.00011184574 0.08731079 0.16710454
-0.18437144 -0.23601477 -0.28967226 -0.13153128 -0.06915013 0.0005461648 0.15736176 -0.25152758
-0.0744792 0.0034473313 -0.17686462 0.1736055 -0.1062774 -0.21429972 -0.1436654 -0.112163916
-0.14027476 -0.32927445 -0.26284856 0.09192017 0.11982718 -0.21591844 0.18372351 -0.20462315
0.16884679 -0.09417452 -0.07461406 0.116957664 -0.24808033 0.00013369005 -0.0018373061 0.122597665
0.077397555 -0.08452739 0.08511348 -0.2685138 -0.23629567 0.1351491 -0.1884489 0.1506082
0.12996113 0.1146742 -0.09163731 -0.031117074 -0.10097072 0.14202149 -0.031742685 -0.21421297
0.0550538 0.185095 -0.18377422 -0.16689615 0.14699337 0.022806115 -0.23796886 0.13929531
0.043578304 0.11639565 -0.2946118 -0.31572214 -0.19870701 -0.09951947 -0.27503553 0.14401218
-0.08275074 -0.037282035 -0.28628042 -0.23348518 -0.16112216 -0.28305364 -0.2621929 0.18916371
-0.049684923 -0.17102547 -0.13038982 0.13811329 -0.21565552 -0.28225285 -0.20833242 -0.060506176
0.01116992 0.12534486 0.05081096 0.14755793 -0.037776712 -0.08053258 0.065122806 -0.39970914
0.14278981 -0.2671501 -0.06051624 0.08192852 0.20973271 -0.2206523 0.15546703 -0.2685884
-0.21627304 0.00704904 -0.32636032 -0.11258358 0.13252725 0.18383674 -0.19552372 0.1869762
0.08162206 -0.16328087 -0.17612453 0.07791426 0.07504824 0.21009146 -0.13741177 0.12608661
0.19691409 0.119045846 -0.34425065 -0.111748226 0.12232478 -0.005021504 -0.13370833 -0.20258623
00000000: bfa4 3f3d 4c4a 8abe adb1 fc3d 1fae 173e
00000010: ca68 773e 4c95 ea3d 39b0 413d 3f98 abbd
00000020: 2af3 583e 3483 d73d 0b6e 77be 7070 71be
00000030: 7a9c f23d ad8c 39be a1e9 57be 4807 bc3d
00000040: afc4 083e d0ea 8ebd 3ece 89be b853 10be
00000050: 2031 843d 69bd 023e 497c 0b3e 9b24 113e
00000060: 9abc 8dbe 02ef c1be d079 6ebe 6b68 9bbe
00000070: 9978 74be a862 053e 255d 17be f646 fc3d
00000080: fd59 f9bc b2cb 41bb 9aae 69be 064f 72be
00000090: 7795 58bd 35c4 90be 4c3b f5bd 0fb1 2dbe
000000a0: dccb 99be 69c0 6fbe bf74 2cbd 7479 9bbe
000000b0: 96d0 123c 5c66 71be c2e9 2c3e ad33 0abe
000000c0: d17b 1d3e 296f 93be 26cc 6fbe 1e05 c93d
000000d0: bc9d c5be f74c 063e f0bc 1a3e efef b4bc
000000e0: 2331 083e 5ba1 b1be cee1 6ebe fd21 2bbe
000000f0: 95db 11be 32d2 c9bd 612c efbc a75b cebd
00000100: 861b 423e b2f7 91bd 9c60 bebd f721 d3bd
00000110: 39cf db3d 5c7b 483e 81fd 10be 7e5f dcbe
00000120: 03b5 44be 7a82 aa3d 9717 85be 8f64 ee3d
00000130: 353c b6be 361a c73d 3301 3e3e 4a53 47be
00000140: 563a 883d 559f 58be 17ea 22be cc18 d1be
00000150: 899c 0d3d a4d2 f93b 4147 223e 6237 3c3e
00000160: 5b20 55be 1807 5dbe a709 1f3e 9427 123e
00000170: 9b9b d23d c111 92be 70d4 cabe febf 523e
00000180: 72cb c2bd dadb 2a3e 208d c5be d075 12be
00000190: 2876 633d d4dd 40bd 0ff6 c7bd 28fa 93be
000001a0: ef77 863c 9cae f23d 39e1 e63d 9299 d8bd
000001b0: c9ad 0dbe 07d7 00be 05d4 d2bd 7fba 8f3d
000001c0: cc42 1e3e 60ce ef3d c6b7 07bd 209d d73d
000001d0: 965b 88bd f72d 0b3e 5dc7 143e c889 31be
000001e0: 3d81 ad3d 2b67 9fbe 2249 0a3e 09b2 2dbe
000001f0: b21c d3bd 1e69 c93d 18fc 9bbe 2bf6 17bd
00000200: 2657 debd 2e10 e23d 235a d13d 36fe f8bd
00000210: 5921 bfbe b98e eab8 00d0 b23d 741d 2b3e
00000220: decb 3cbe dbad 71be ec4f 94be 23b0 06be
00000230: 959e 8dbd 802c 0f3a 7123 213e 39c8 80be
00000240: 8d88 98bd 9fec 613b 001c 35be a4c5 313e
00000250: f7a7 d9bd 6371 5bbe 061d 13be 32b6 e5bd
00000260: 30a4 0fbe a996 a8be 1694 86be a440 bc3d
00000270: f467 f53d b919 5dbe 0422 3c3e bb88 51be
00000280: 2ce6 2c3e 92de c0bd 42cf 98bd 8087 ef3d
00000290: c508 7ebe 262f 0c39 c3d1 f0ba 7c14 fb3d
000002a0: 9c82 9e3d b21c adbd fa4f ae3d a47a 89be
000002b0: 7ef7 71be 8764 0a3e c0f8 40be 0939 1a3e
000002c0: 8814 053e 4fda ea3d 58ac bbbd 3ce9 febc
000002d0: bdc9 cebd 156e 113e 9e04 02bd a55a 5bbe
000002e0: 1880 613d 8b89 3d3e 4f2f 3cbe d3e6 2abe
000002f0: 6e85 163e e4d3 ba3c 1cae 73be 6ea3 0e3e
00000300: 2a7f 323d d860 ee3d 5cd7 96be 55a6 a1be
00000310: da79 4bbe ddd0 cbbd 75d1 8cbe ee77 133e
00000320: 3879 a9bd 0cb5 18bd 5993 92be bd16 6fbe
00000330: 35fd 24be 68ec 90be 263e 86be 22b4 413e
00000340: 6b82 4bbd 4d21 2fbe e984 05be 926d 0d3e
00000350: cdd4 5cbe 7283 90be 1855 55be 53d5 77bd
00000360: 0a02 373c 675a 003e 271f 503d 6d19 173e
00000370: c1bb 1abd 44ee a4bd 1b5f 853d ada6 ccbe
00000380: 7e37 123e e6c7 88be e0df 77bd 24ca a73d
00000390: 2cc4 563e adf2 61be c032 1f3e 6b84 89be
000003a0: ae76 5dbe a2fb e63b b318 a7be 3892 e6bd
000003b0: 39b5 073e b33f 3c3e 5f37 48be b076 3f3e
000003c0: 7729 a73d 1a33 27be fd59 34be 8391 9f3d
000003d0: e4b2 993d 3722 573e acb5 0cbe d91c 013e
000003e0: d9a3 493e 4fce f33d 9f41 b0be 41dc e4bd
000003f0: 6a85 fa3d 6e8b a4bb d6ea 08be c472 4fbe

fc2.bias f4 [10]
-0.14463049 0.39649326 0.022094348 -0.16201437 -0.009118454 -0.036901012 0.06999175 -0.14636053
-0.0262383 -0.18879007
00000000: 041a 14be 2a01 cb3e 35ff b43c 18e7 25be
00000010: 9165 15bc 8425 17bd d657 8f3d 89df 15be
00000020: b4f1 d6bc 2f52 41be
